projects/algorithms/DeepFake_Detection_Using_MesoNet/mesonet_model.pth (torch, 318862 bytes, 27 tensors)

conv1.weight f4 [8, 3, 3, 3]
-0.13536437 -0.061938502 0.221623 -0.36021155 -0.0005487423 -0.044850707 -0.17332788 -0.068930306
0.19021769 0.021976914 -0.13737907 0.17628673 -0.25333342 0.0148643 0.050135557 -0.15978827
-0.06327077 0.24617963 -0.09074163 0.052564926 0.2347525 -0.16658945 -0.06439914 0.12049829
-0.037149027 -0.053621233 0.26463026 -0.078046806 -0.112060644 -0.09895989 -0.4401911 -0.16644843
0.18914372 -0.14017941 -0.058952842 0.4114538 -0.28715712 -0.03978015 0.0795704 -0.31252447
0.14947581 0.057405885 -0.014786361 0.31332806 0.3435015 -0.05900062 -0.26984817 0.046623588
-0.050275072 -0.077967174 0.2453989 -0.24869311 0.1813828 0.2910509 0.28867838 0.17676479
0.21145236 0.075890146 -0.018616818 0.15762445 -0.34134007 -0.27967277 -0.27331787 0.2263307
0.39296114 0.18263836 -0.10751932 0.01590207 0.05545326 -0.4253291 -0.31985196 -0.14999364
0.25122705 0.10795965 0.26221472 -0.055171914 0.17866963 -0.1403744 -0.09573531 -0.3363289
-0.1314273 -0.5728929 -0.639237 0.08453064 -0.27838978 -0.094552346 -0.05949806 0.006530594
0.31496784 -0.1300878 -0.4218281 -0.2663148 -0.04917203 -0.061858483 0.033218984 -0.1325985
0.2666635 0.26657784 0.072322704 -0.12762071 -0.115000665 0.101318784 -0.2079891 -0.097516425
-0.09778448 0.16718233 0.06971566 0.101348676 -0.37771448 -0.22877261 0.015526448 -0.071270056
0.30361247 0.28506437 -0.042609766 0.2520098 -0.17932023 -0.4405064 -0.14902122 0.2373665
-0.2121554 0.3251064 0.385382 -0.063345104 -0.003136352 0.044097602 -0.2425334 -0.13322663
0.06502488 -0.26658127 0.1500539 0.24716286 0.10365531 0.18420197 -0.09017116 0.17226285
0.35020775 -0.049402803 0.13733594 0.029519888 -0.40129945 -0.12440643 -0.083051935 -0.41009444
0.27142325 0.03639438 -0.08768238 0.3334032 0.08091631 -0.23609667 0.20367607 -0.32126155
-0.23716967 0.16764171 0.09181851 0.10860285 0.33223754 -0.09219332 -0.17424959 -0.052446265
-0.31114975 -0.21094859 -0.4103086 -0.3981577 -0.23303822 -0.31504864 -0.2524914 -0.124795526
-0.052769613 0.0822154 0.005739356 0.15043958 0.07839153 0.20293328 0.20813785 0.19194402
0.25505075 0.1520194 0.3326082 0.3931398 -0.026682373 -0.0016693982 -0.036637243 -0.112977095
-0.12400509 0.1825043 0.16411664 -0.11977381 0.14381935 0.21457256 -0.10093952 0.093417406
0.009168453 -0.066536084 -0.0649684 -0.3115749 -0.4522749 0.1344958 0.3069121 0.017358268
0.35031056 0.21935749 0.13287406 0.017836055 -0.109194025 -0.49524507 0.13548955 -0.0387819
0.0048980457 0.13178921 0.24406634 0.121570006 0.08690558 -0.29937035 -0.407147 0.04866242
00000000: f59c 0abe 3ab3 7dbd 24f1 623e a66d b8be
00000010: 79d9 0fba 60b5 37bd dd7c 31be 552b 8dbd
00000020: 6dc8 423e ee08 b43c 19ad 0cbe 8284 343e
00000030: ebb4 81be 6589 733c f15a 4d3d 899f 23be
00000040: 1b94 81bd 8316 7c3e bfd6 b9bd 524e 573d
00000050: f662 703e 6d96 2abe b2e3 83bd cfc7 f63d
00000060: 9429 18bd f0a1 5bbd 9e7d 873e 01d7 9fbd
00000070: 0d80 e5bd 7cab cabd ba60 e1be 7571 2abe
00000080: e4ae 413e 318b 0fbe 8978 71bd 13aa d23e
00000090: 4206 93be 83f0 22bd cef5 a23d 3503 a0be
000000a0: 3010 193e 6f22 6b3d 7e42 72bc 896c a03e
000000b0: 6edf af3e a2aa 71bd 8a29 8abe 60f8 3e3d
000000c0: 3ced 4dbd 41ad 9fbd d949 7b3e 68a9 7ebe
000000d0: 6abc 393e a004 953e a7cd 933e d401 353e
000000e0: f886 583e 4b6c 9b3d 4c82 98bc 4e68 213e
000000f0: 20c4 aebe 4531 8fbe 52f0 8bbe 3cc3 673e
00000100: 3432 c93e 8d05 3b3e 1733 dcbd 0f45 823c
00000110: f522 633d bcc4 d9be a3c3 a3be ef97 19be
00000120: d5a0 803e f319 dd3d 0241 863e f2fb 61bd
00000130: 2cf5 363e 4fbe 0fbe e010 c4bd 4d33 acbe
00000140: e194 06be 1ca9 12bf 09a5 23bf 661e ad3d
00000150: 1b89 8ebe a9a4 c1bd 3db4 73bd 98fe d53b
00000160: 7743 a13e bc35 05be daf9 d7be 6a5a 88be
00000170: 9c68 49bd 525f 7dbd a110 083d e7c7 07be
00000180: 1e88 883e e47c 883e ed1d 943d 01af 02be
00000190: 7885 ebbd 3980 cf3d 18fb 54be b1b6 c7bd
000001a0: 3b43 c8bd d831 2b3e 15c7 8e3d e58f cf3d
000001b0: cb63 c1be 5e43 6abe a562 7e3c 09f6 91bd
000001c0: 1873 9b3e f5f3 913e 9487 2ebd 6e07 813e
000001d0: b99f 37be 0e8a e1be 0599 18be 3410 733e
000001e0: 443f 59be 5974 a63e ca50 c53e 14bb 81bd
000001f0: 418b 4dbb b09f 343d ad5a 78be 906c 08be
00000200: c42b 853d 577d 88be bba7 193e 4318 7d3e
00000210: 3c49 d43d 719f 3c3e a8ab b8bd ac65 303e
00000220: 6e4e b33e 985a 4abd cba1 0c3e b1d3 f13c
00000230: 1f77 cdbe ccc8 febd 2217 aabd e6f7 d1be
00000240: fdf7 8a3e 4612 153d d292 b3bd d3b3 aa3e
00000250: 73b7 a53d 53c3 71be 7690 503e 657c a4be
00000260: 9bdc 72be 45aa 2b3e 580b bc3d 2c6b de3d
00000270: 0a1b aa3e dacf bcbd 7c6e 32be e5d1 56bd
00000280: 054f 9fbe e802 58be f813 d2be 53db cbbe
00000290: 92a1 6ebe 0e4e a1be 8e46 81be cc94 ffbd
000002a0: f324 58bd 8c60 a83d 3511 bc3b d50c 1a3e
000002b0: bd8b a03d becd 4f3e 1722 553e f98c 443e
000002c0: 0396 823e f9aa 1b3e 9f4b aa3e 9f49 c93e
000002d0: fe94 dabc b5cf daba ef10 16bd 8960 e7bd
000002e0: 61f6 fdbd 68e2 3a3e 310e 283e f94b f5bd
000002f0: 6145 133e e9b8 5b3e 61b9 cebd a051 bf3d
00000300: 4737 163c 1244 88bd 270e 85bd bf86 9fbe
00000310: 9390 e7be 44b9 093e 9523 9d3e ed32 8e3c
00000320: e85b b33e 409f 603e 2310 083e eb1c 923c
00000330: 1ea1 dfbd c390 fdbe c6bd 0a3e c5d9 1ebd
00000340: c97f a03b c0f3 063e 87ec 793e b2f9 f83d
00000350: 8dfb b13d 1247 99be 9275 d0be 3f52 473d

conv1.bias f4 [8]
-0.66086054 -0.37244147 0.2546778 -0.3837841 0.205895 0.58074176 0.37443188 -0.4229123
00000000: 282e 29bf a6b0 bebe 2165 823e 597f c4be
00000010: 24d6 523e 7eab 143f 89b5 bf3e f687 d8be

bn1.weight f4 [8]
0.05091387 1.0021005 1.2416443 0.4744451 1.9029312 1.0169716 0.2087215 0.47850773
00000000: 108b 503d d444 803f 33ee 9e3f 78ea f23e
00000010: 4093 f33f 202c 823f 17bb 553e f7fe f43e

bn1.bias f4 [8]
0.01726125 0.04586107 -0.28528932 0.11505339 0.1337029 0.0012381296 0.054279387 0.14210294
00000000: 7767 8d3c d1d8 3b3d 7111 92be 1da1 eb3d
00000010: 6ae9 083e bc48 a23a 1054 5e3d 6f83 113e

bn1.running_mean f4 [8]
0.0027046574 0.011468015 0.2948212 0.3541707 0.18466623 0.6489198 0.17296252 0.005186529
00000000: 9f40 313b 57e4 3b3c cef2 963e dd55 b53e
00000010: 2519 3d3e 9c1f 263f 161d 313e c2f3 a93b

bn1.running_var f4 [8]
0.0015143866 0.007457014 0.046529844 0.22085951 0.030095967 0.10908416 0.07950896 0.0026086469
00000000: 627e c63a f859 f43b 1496 3e3d ff28 623e
00000010: d18b f63c 8467 df3d 98d5 a23d d5f5 2a3b

conv2.weight f4 [8, 8, 5, 5]
-0.16560423 0.0475098 -0.103751995 -0.0605474 -0.05676657 -0.22969757 0.13683437 -0.13812707
-0.14412616 0.057454605 -0.1386578 0.15128547 0.00612895 0.07794419 0.16846803 -0.14580306
-0.09456326 0.12289844 0.24200042 0.060884953 -0.11747651 -0.0637299 0.096457765 0.22451869
0.06158303 -0.04040055 -0.07040512 -0.0881048 -0.09508057 -0.10010458 -0.27470952 -0.12339266
-0.11925641 -0.2979994 -0.0154646095 -0.24574389 -0.013468578 0.06807927 0.19611214 0.23087569
0.09385974 0.082769126 0.14516687 0.040525645 -0.10948924 -0.15358807 0.04827177 0.09382126
0.13860324 -0.18301372 -0.11867329 -0.18800879 -0.39447856 -0.26931033 -0.11704103 0.21696103
0.0038333018 -0.14190511 0.113781236 0.36881298 0.18352292 0.5185276 0.5491283 0.48465493
0.38027906 -0.004831889 -0.114538886 -0.051416937 -0.06779204 -0.20052643 -0.11164399 -0.33614868
-0.6010338 -0.38135836 -0.1874072 -0.08263516 -0.16553044 -0.1984564 -0.16160555 -0.28179577
-0.09284882 -0.10313796 -0.12471914 -0.090732135 -0.21237405 0.14199609 0.06961682 0.012158162
0.046321996 0.011226708 0.24493672 0.26975048 0.28386354 0.21093877 0.3109633 -0.008178325
-0.04318965 0.06497707 0.13829619 0.22821239 0.04038176 -0.014065033 0.047425702 0.10080587
0.020443216 0.016916124 0.123737596 0.23067373 0.30817133 -0.0033735815 0.02370546 -0.102266386
-0.15850176 -0.55712324 -0.43843013 0.19373856 -0.117956586 -0.22090064 -0.09221325 -0.13875894
0.048313573 0.24489756 0.18802373 0.17849231 0.064942345 0.019010773 -0.13991956 -0.24735974
-0.32834807 -0.16085899 -0.001274612 -0.2522734 -0.19772011 0.13636498 0.3039895 -0.06477091
0.13977063 0.22126426 0.3198456 0.21118371 0.12819704 0.02515445 0.053742252 -0.055069614
-0.20886238 0.12239153 0.014380709 -0.11475885 -0.19510677 -0.19964375 -0.12500161 0.041199747
0.13561326 0.17347178 0.26065826 -0.14314719 -0.06166358 -0.041279793 0.039962295 0.1274682
-0.19595908 -0.10172147 -0.08251325 0.04293652 0.0036848052 -0.20798142 -0.037287053 -0.07671712
-0.01226651 -0.013108521 -0.30896685 -0.12963454 -0.12384504 -0.045821674 -0.033911362 -0.009471671
-0.08997429 -0.116531916 -0.055412173 0.045906257 0.011458753 0.07314594 -0.12302415 -0.019306084
-0.19563408 -0.38397306 -0.18691657 -0.22656682 -0.30034205 -0.35212353 -0.18201323 -0.3158371
-0.47759137 -0.21570708 0.025340673 -0.09806172 -0.015751857 -0.15365887 0.082966596 -0.09626385
-0.09404699 -0.19881861 -0.078687415 0.06005945 -0.08976786 -0.055001333 -0.17168145 -0.059490565
-0.15261401 -0.22914751 0.09016703 0.0001936902 0.020561134 0.088453636 -0.11132438 0.25549594
-0.022052744 0.07221167 0.07668468 0.035053205 0.31366912 -0.011091067 0.20297302 0.07893975
-0.057757214 -0.1750349 -0.20903501 -0.018401558 -0.007119226 -0.15192115 -0.2705026 -0.2606484
-0.05934013 -0.0029226923 -0.12222928 -0.24996467 -0.41878462 -0.70977557 -0.34311256 0.07075358
-0.18953244 -0.40529066 -0.3271701 -0.3652884 -0.37555817 0.17008942 -0.06414635 0.13722536
-0.10625229 -0.7894553 -0.037494984 -0.3949971 -0.5745442 -0.67939657 -0.48087013 0.21127144
00000000: 2894 29be a399 423d ed7b d4bd 8d00 78bd
00000010: 1084 68bd d735 6bbe 4f1e 0c3e 2f71 0dbe
00000020: cf95 13be 8555 6b3d 4ffc 0dbe 94ea 1a3e
00000030: 5cd5 c83b 34a1 9f3d e282 2c3e 664d 15be
00000040: 62aa c1bd 2db2 fb3d f5ce 773e 8062 793d
00000050: 8697 f0bd d284 82bd a68b c53d 3ae8 653e
00000060: 7d3e 7c3d 0c7b 25bd 8f30 90bd 4a70 b4bd
00000070: 9ab9 c2bd a103 cdbd baa6 8cbe 4ab5 fcbd
00000080: b43c f4bd 6193 98be 465f 7dbc 49a4 7bbe
00000090: 50ab 5cbc 256d 8b3d 9fd1 483e ad6a 6c3e
000000a0: 8939 c03d dc82 a93d a0a6 143e 38fe 253d
000000b0: e53b e0bd 3146 1dbe 9fb8 453d 5c25 c03d
000000c0: 02ee 0d3e f367 3bbe fb0a f3bd 6085 40be
000000d0: 18f9 c9be 0be3 89be 35b3 efbd 082b 5e3e
000000e0: 2238 7b3b 934f 11be 2306 e93d 0ed5 bc3e
000000f0: 6fed 3b3e 3abe 043f ac93 0c3f b124 f83e
00000100: f0b3 c23e d354 9ebb 5d93 eabd 919a 52bd
00000110: 8ed6 8abd cd56 4dbe 9ba5 e4bd ae1b acbe
00000120: 5add 19bf 6741 c3be ace7 3fbe 9f3c a9bd
00000130: d080 29be 2838 4bbe ed7b 25be 8947 90be
00000140: 8627 bebd ff39 d3bd c06c ffbd c5d1 b9bd
00000150: 9578 59be 6c67 113e 4393 8e3d 0733 473c
00000160: 22bc 3d3d 3af0 373c b1d0 7a3e bc1c 8a3e
00000170: 9056 913e 5500 583e 9536 9f3e 62fe 05bc
00000180: a1e7 30bd b312 853d 849d 0d3e 82b0 693e
00000190: 5867 253d 0671 66bc 7441 423d 4f73 ce3d
000001a0: 8878 a73c af93 8a3c 236a fd3d bc35 6c3e
000001b0: a2c8 9d3e 4e17 5dbb f431 c23c 0a71 d1bd
000001c0: 494e 22be a19f 0ebf ea79 e0be 6763 463e
000001d0: 3993 f1bd c733 62be 4dda bcbd d316 0ebe
000001e0: 74e4 453d 6dc6 7a3e 4b89 403e b0c6 363e
000001f0: 7e00 853d 7bbc 9b3c 1347 0fbe df4b 7dbe
00000200: 3d1d a8be 38b8 24be e210 a7ba fb29 81be
00000210: 2477 4abe 43a3 0b3e 83a4 9b3e 9ca6 84bd
00000220: 0820 0f3e 1993 623e cdc2 a33e 8b40 583e
00000230: 1646 033e b510 ce3c d620 5c3d ad90 61bd
00000240: 05e0 55be 69a8 fa3d 119d 6b3c b006 ebbd
00000250: 12ca 47be 696f 4cbe 6c00 00be 11c1 283d
00000260: 34de 0a3e 96a2 313e 0075 853e 2d95 12be
00000270: f392 7cbd 0015 29bd 81af 233d 0687 023e
00000280: 7fa9 48be 5953 d0bd b5fc a8bd 34de 2f3d
00000290: c67c 713b 15f9 54be 4fba 18bd de1d 9dbd
000002a0: 79f9 48bc 1fc5 56bc e730 9ebe ebbe 04be
000002b0: 78a2 fdbd 82af 3bbd a4e6 0abd 112f 1bbc
000002c0: 7144 b8bd 49a8 eebd e0f7 62bd 3308 3c3d
000002d0: 7ebd 3b3c 8acd 953d 16f4 fbbd cb27 9ebc
000002e0: 4d54 48be 1e98 c4be 0f67 3fbe 2201 68be
000002f0: 6fc6 99be 8949 b4be ad61 3abe 66b5 a1be
00000300: db86 f4be 51e2 5cbe 3e97 cf3c 95d4 c8bd
00000310: 0a0a 81bc c058 1dbe 64ea a93d fb25 c5bd
00000320: b59b c0bd 1b97 4bbe de26 a1bd e600 763d
00000330: 36d8 b7bd 1449 61bd 43cd 2fbe 61ac 73bd
00000340: d946 1cbe a5a5 6abe 7ea9 b83d 5119 4b39
00000350: d36f a83c 2e27 b53d 09fe e3bd 5dd0 823e
00000360: f5a7 b4bc b6e3 933d dc0c 9d3d f393 0f3d
00000370: 3d99 a03e 4fb7 35bc 29d8 4f3e 2aab a13d
00000380: d492 6cbd 593c 33be 460d 56be ddbe 96bc
00000390: 6548 e9bb 3891 1bbe 517f 8abe b573 85be
000003a0: a30e 73bd a48a 3fbb 5853 fabd bdf6 7fbe
000003b0: f06a d6be dab3 35bf 73ac afbe 41e7 903d
000003c0: cb14 42be 4282 cfbe d782 a7be 1507 bbbe
000003d0: 2949 c0be ec2b 2e3e 295f 83bd ce84 0c3e
000003e0: cd9a d9bd be19 4abf 5794 19bd 0f3d cabe
000003f0: 5415 13bf efec 2dbf 9c34 f6be 8a57 583e

conv2.bias f4 [8]
-0.66694415 0.24594747 -0.40950552 0.65546167 -0.3193972 -0.18902908 -0.23152153 0.23278101
00000000: dabc 2abf a7d9 7b3e b5aa d1be 56cc 273f
00000010: 0888 a3be d790 41be fb13 6dbe 255e 6e3e

bn2.weight f4 [8]
1.2576964 0.91395587 0.64854103 1.1055546 0.86677176 1.1775819 0.7024158 1.2381297
00000000: 32fc a03f 03f9 693f c906 263f d082 8d3f
00000010: c1e4 5d3f 01bb 963f 86d1 333f 097b 9e3f

bn2.bias f4 [8]
-0.0078892475 0.21391061 0.24638882 0.14900972 0.17394406 0.15591204 0.02878982 0.09709394
00000000: e741 01bc 620b 5b3e 5a4d 7c3e 0196 183e
00000010: 641e 323e 68a7 1f3e a1d8 eb3c 30d9 c63d

bn2.running_mean f4 [8]
0.7099314 1.2597408 2.6501148 1.5266087 0.62279534 0.5533289 0.81426984 1.1615866
00000000: 10be 353f 303f a13f 7b9b 2940 ea67 c33f
00000010: 846f 1f3f f6a6 0d3f fd73 503f dfae 943f

bn2.running_var f4 [8]
5.5424356 4.6431336 24.310534 3.61184 1.713079 2.1993704 4.18226 4.477831
00000000: a25b b140 8d94 9440 f97b c241 6328 6740
00000010: 2c46 db3f 7cc2 0c40 13d5 8540 644a 8f40

conv3.weight f4 [16, 8, 5, 5]
0.25732002 0.27474868 0.3697522 0.46399668 0.09886396 -0.3432912 -0.29515797 0.10762465
-0.032857582 0.030782873 0.046178196 0.1716154 0.0013391532 0.045244236 0.085075974 -0.14440693
-0.009237133 -0.000114154085 0.11251789 0.12509988 -0.09363777 -0.10596624 -0.020973194 0.20254877
0.19288857 -0.19684516 0.004789289 0.10375934 -0.10492815 -0.2759038 -0.083376266 0.24376483
0.29014632 -0.044541582 -0.261914 -0.24430926 -0.046543524 -0.0058576083 0.02822941 -0.07094565
-0.17684656 -0.12032371 0.0057306844 0.2060553 -0.026320932 -0.17110123 -0.27126062 0.085451245
0.23108698 0.050125197 -0.06896766 -0.13068506 -0.14393996 -0.21064752 -0.26327807 -0.1386956
0.010934103 -0.038185768 -0.110654294 -0.38600457 -0.20491424 -0.35584125 -0.20096979 -0.11979517
-0.36324465 -0.16914463 -0.2831049 -0.10650487 -0.13385129 -0.09519806 0.070330985 0.11019614
0.30628908 0.16779236 0.10620136 0.37360734 0.5460444 0.19621688 0.079775535 0.24622251
-0.0618484 0.11841032 -0.04111348 0.31481954 0.35644647 -0.02398291 -0.19534731 -0.42428866
-0.1041072 -0.017065033 0.03876505 0.06490045 -0.02422691 -0.091713175 -0.002656798 -0.15538946
0.051777493 -0.06274073 -0.19431739 -0.04152287 -0.19919997 -0.05437351 -0.11350674 -0.30598506
-0.15425074 -0.13682054 -0.02855316 -0.084777825 -0.2868892 -0.38068834 -0.11962161 -0.0036343727
0.04516568 0.20574318 0.20942762 -0.024468953 -0.19464149 -0.0040163076 0.032756623 -0.036825035
0.029309632 0.072104186 -0.25263935 -0.25708154 -0.30313933 0.15178378 0.20777547 0.36633223
0.18856218 0.25685808 -0.3249621 -0.1873724 0.03692713 0.02014969 0.24810477 -0.71798843
-0.63983124 -0.15904398 -0.27123064 -0.4300311 -0.35690144 -0.37850803 0.051520135 0.038502473
-0.3120204 -0.09309215 -0.08418427 0.21461354 0.20491648 0.16509622 0.33455604 0.20475481
0.011289995 -0.27879336 -0.2172759 0.05384487 0.32116395 0.1625062 -0.09608906 0.10082638
0.15918839 0.014300166 -0.118140966 -0.13123968 -0.21187313 0.14496215 -0.03041978 -0.19889365
0.045982786 0.14431635 -0.04379389 -0.16690198 -0.13919115 -0.40210596 -0.044779245 -0.20139097
0.04350632 0.034278013 0.1180132 0.063303396 0.15190029 -0.14381397 -0.6690591 -0.31806016
-0.20835488 0.28415132 0.30086046 -0.05675072 -0.22968479 -0.0023670644 0.19083805 0.10262615
-0.032622237 0.12830833 0.21789408 0.03567194 -0.25470462 -0.26081157 0.08445543 0.0029881909
0.042468563 0.057774603 -0.0814308 -0.031564053 0.055133745 0.010074458 0.119061396 0.39281803
0.31065333 0.13216312 -0.05513321 0.10029199 -0.017295768 0.12301524 -0.15662938 0.013959471
-0.14308612 -0.10697324 -0.20328729 -0.27434647 0.04929501 0.012941901 -0.17952962 0.024320843
-0.18719983 -0.052781556 0.053955138 0.18876497 0.24999289 0.15985866 -0.11319541 0.017547067
0.34086058 0.38589582 0.11913615 -0.028105227 0.14409646 0.17534934 0.2075741 -0.059484407
0.17552334 -0.13644648 -0.4569562 -0.1648446 0.13424109 -0.05728938 -0.31449476 -0.46975198
0.08577612 0.21362385 0.28158203 0.35461444 0.28562635 0.17416745 0.11537562 0.36238858
00000000: 73bf 833e dcab 8c3e 2950 bd3e f990 ed3e
00000010: 3079 ca3d ddc3 afbe f21e 97be 506a dc3d
00000020: ac95 06bd 5d2c fc3c 5925 3d3d f3bb 2f3e
00000030: 8686 af3a 0552 393d 503c ae3d 69df 13be
00000040: 5857 17bc 0266 efb8 c86f e63d 2f1a 003e
00000050: 29c5 bfbd d404 d9bd facf abbc f268 4f3e
00000060: 9584 453e c791 49be 78ef 9c3b c77f d43d
00000070: 92e4 d6bd 4343 8dbe 2dc1 aabd 7d9d 793e
00000080: 0f8e 943e 3c71 36bd 9819 86be 352c 7abe
00000090: 6ca4 3ebd 2ef1 bfbb 5d41 e73c f44b 91bd
000000a0: 4417 35be 476c f6bd 77c8 bb3b 2900 533e
000000b0: ff9e d7bc 2935 2fbe ace2 8abe 1001 af3d
000000c0: 11a2 6c3e 1450 4d3d eb3e 8dbd 4ed2 05be
000000d0: ff64 13be fcb3 57be 62cc 86be 3806 0ebe
000000e0: f424 333c ae68 1cbd b89e e2bd 64a2 c5be
000000f0: 0ad5 51be d330 b6be 06cb 4dbe 2c57 f5bd
00000100: 34fb b9be 4034 2dbe 20f3 90be 3a1f dabd
00000110: 5010 09be 33f7 c2bd b109 903d 84ae e13d
00000120: ecd1 9c3e c3d1 2b3e 1980 d93d 7649 bf3e
00000130: 91c9 0b3f 14ed 483e 5b61 a33d c121 7c3e
00000140: bf54 7dbd 1c81 f23d 9c66 28bd 0730 a13e
00000150: 2780 b63e cf77 c4bc 2009 48be 5d3c d9be
00000160: 2836 d5bd f8cb 8bbc 1ac8 1e3d 87ea 843d
00000170: 8377 c6bc 1ed4 bbbd ad1d 2ebb 6a1e 1fbe
00000180: a314 543d 367e 80bd 23fb 46be e313 2abd
00000190: 14fb 4bbe c2b6 5ebd 3976 e8bd 13aa 9cbe
000001a0: e8f3 1dbe af1a 0cbe 51e8 e9bc ff9f adbd
000001b0: 24e3 92be 95e9 c2be 2dfc f4bd a82e 6ebb
000001c0: a6ff 383d 57ae 523e 3274 563e 1d73 c8bc
000001d0: 1950 47be 3b9b 83bb cf2b 063d d9d5 16bd
000001e0: c11a f03c 5cab 933d f259 81be 31a0 83be
000001f0: 1435 9bbe 356d 1b3e 18c3 543e e68f bb3e
00000200: 7216 413e e782 833e 6f61 a6be 8dde 3fbe
00000210: e740 173d f610 a53c 2d0f 7e3e 17ce 37bf
00000220: fbcb 23bf 6ddc 22be bede 8abe 092d dcbe
00000230: c9bb b6be cecb c1be c706 533d c5b4 1d3d
00000240: 23c1 9fbe 19a7 bebd cd68 acbd a7c3 5b3e
00000250: a0d5 513e fc0e 293e ee4a ab3e 3fab 513e
00000260: acf9 383c 01be 8ebe 937d 5ebe 708c 5c3d
00000270: 9a6f a43e 0668 263e 57ca c4bd 107e ce3d
00000280: 4802 233e 3e4b 6a3c e4f3 f1bd b263 06be
00000290: 45f5 58be f570 143e e732 f9bc c7aa 4bbe
000002a0: 7258 3c3d aac7 133e 3961 33bd 5ae8 2abe
000002b0: 2088 0ebe d5e0 cdbe 716a 37bd 6f39 4ebe
000002c0: af33 323d 1a67 0c3d e8b0 f13d 36a5 813d
000002d0: c08b 1b3e f843 13be 7547 2bbf c8d8 a2be
000002e0: fb5a 55be 487c 913e 620a 9a3e 7173 68bd
000002f0: 7d32 6bbe c020 1bbb 0d6b 433e a92d d23d
00000300: e59e 05bd 4263 033e a01f 5f3e bd1c 123d
00000310: a568 82be 1889 85be f8f6 ac3d 86d5 433b
00000320: 84f3 2d3d 10a5 6c3d 31c5 a6bd 4f49 01bd
00000330: ecd3 613d 570f 253c 76d6 f33d 721f c93e
00000340: f40d 9f3e c555 073e 5cd3 61bd e365 cd3d
00000350: dbaf 8dbc 6aef fb3d 7463 20be 44b6 643c
00000360: 2b85 12be c914 dbbd 8b2a 50be 2477 8cbe
00000370: 90e9 493d 440a 543c 9dd6 37be 813c c73c
00000380: 50b1 3fbe 7931 58bd 1000 5d3d 9b4b 413e
00000390: 23fe 7f3e fdb1 233e ffd2 e7bd debe 8f3c
000003a0: 4785 ae3e 2394 c53e a7fd f33d ef3c e6bc
000003b0: 068e 133e c78e 333e 4e8e 543e eca5 73bd
000003c0: 64bc 333e a0b8 0bbe 2af6 e9be 06cd 28be
000003d0: 7f76 093e 45a8 6abd 7505 a1be 5583 f0be
000003e0: 64ab af3d 36c0 5a3e 852b 903e 0690 b53e
000003f0: 9e3d 923e f458 323e 0e4a ec3d ff8a b93e

conv3.bias f4 [16]
-0.39762768 -0.38152036 -0.08716596 -0.7299186 -0.39867377 -0.14112505 0.13751912 0.027674729
-0.4998547 0.46339935 -0.31668684 -0.26278284 -0.28419873 -0.027718473 0.05297823 0.23120813
00000000: db95 cbbe a356 c3be 1184 b2bd f2db 3abf
00000010: f81e ccbe 1683 10be d0d1 0c3e 1db6 e23c
00000020: f5ec ffbe ae42 ed3e c724 a2be 798b 86be
00000030: 7f82 91be da11 e3bc b3ff 583d d3c1 6c3e

bn3.weight f4 [16]
0.8624471 1.0888968 0.9934398 0.8837229 0.9643668 1.108105 0.98788106 0.9194432
1.0596294 1.0754273 1.0344367 0.88275707 0.7114262 1.1020919 1.0060014 1.256237
00000000: 55c9 5c3f f860 8b3f 1252 7e3f aa3b 623f
00000010: bee0 763f 62d6 8d3f c6e5 7c3f a160 6b3f
00000020: f0a1 873f 9aa7 893f 6c68 843f 5efc 613f
00000030: 0720 363f 5911 8d3f a7c4 803f 60cc a03f

bn3.bias f4 [16]
-0.08830893 0.15844876 -0.21667734 0.22237024 0.05382512 0.016548038 -0.045741662 0.47176686
0.5726154 -0.06021922 -0.08199504 0.2613791 0.26417845 0.3850061 -0.0058995318 0.19770798
00000000: 50db b4bd 6440 223e aae0 5dbe 06b5 633e
00000010: bb77 5c3d c08f 873c 9c5b 3bbd 6d8b f13e
00000020: ec96 123f 6ea8 76bd 04ed a7bd 7bd3 853e
00000030: 6642 873e 851f c53e dc50 c1bb f673 4a3e

bn3.running_mean f4 [16]
0.6229498 1.0152473 0.7066396 0.50695956 0.6679553 0.74960744 0.5538238 1.6682394
1.8882289 1.200423 0.7429918 1.2106242 0.8891788 1.9379742 0.93987525 2.256971
00000000: a379 1f3f a0f3 813f 55e6 343f 1ac8 013f
00000010: 1eff 2a3f 46e6 3f3f 66c7 0d3f de88 d53f
00000020: 7cb1 f13f 76a7 993f b634 3e3f bcf5 9a3f
00000030: 39a1 633f 8a0f f83f aa9b 703f 3672 1040

bn3.running_var f4 [16]
3.420753 5.348436 2.5762444 2.7856305 4.547028 3.6414092 1.7340051 8.634289
16.583902 5.4786 3.1508594 5.360259 4.608235 10.104372 4.611245 11.701546
00000000: 9eed 5a40 6326 ab40 30e1 2440 c547 3240
00000010: 4181 9140 d90c 6940 e1f3 dd3f 0c26 0a41
00000020: d5ab 8441 b150 af40 aea7 4940 3e87 ab40
00000030: a976 9340 82ab 2141 528f 9340 8839 3b41

conv4.weight f4 [16, 16, 5, 5]
-0.07326739 0.061230723 0.07618545 0.042175356 -0.13692309 -0.22722597 -0.079346284 -0.35091594
-0.26447526 -0.09996121 -0.03353159 -8.7865454e-05 -0.29721886 -0.18420741 -0.06014293 -0.03650756
0.09748551 0.23467888 0.20639753 0.24500367 0.020371197 -0.22227052 -0.14784817 -0.24480852
-0.10970638 0.29921323 0.25552964 0.30928272 0.10982439 0.27030975 -0.08992425 -0.07640754
-0.059000768 0.19928406 0.3661772 -0.29417732 0.04680607 0.18516953 0.09963758 0.14474307
-0.27853745 0.14702323 -0.3913685 -0.3952407 -0.3273288 0.15691985 0.11294914 -0.38159138
-0.043174602 -0.06723395 -0.100522496 -0.44388998 -0.19766282 -0.28839856 0.1379439 0.31752238
0.15666594 0.031414624 -0.16084924 -0.20518376 -0.02135197 0.01985305 -0.18959567 -0.20545651
-0.19253297 0.20087506 0.028242934 0.16811997 -0.0076354924 -0.07064866 -0.0009964207 -0.21163459
-0.227814 -0.0916806 -0.046941865 -0.32445428 -0.031055456 0.24702524 0.19500466 -0.4612587
-0.18384849 0.00058389443 0.13283153 -0.38660985 -0.34383383 -0.04883247 0.024299001 -0.21310624
-0.46554506 -0.3771834 0.023775255 -0.080663815 -0.36740074 -0.39536107 0.26638934 0.24723648
-0.134456 -0.039072856 0.08742155 0.33748317 -0.08597545 0.041442234 0.15232436 0.10380535
0.12290948 -0.1261814 0.07789723 -0.3570383 -0.06170993 0.16012536 -0.0939902 0.13876678
0.14525308 0.29196343 0.15846692 -0.1152828 0.27010223 0.3794951 0.29249588 -0.106426746
0.042576205 0.04281743 -0.13350242 -0.15670225 -0.17033163 0.23209801 -0.3295359 -0.24463078
-0.053961404 -0.039463133 0.28359058 0.090094395 0.1733686 0.55457187 0.4904049 0.004943911
-0.0074275592 -0.18541463 -0.12725443 -0.091598265 0.1348726 0.15776555 0.08357101 -0.25880542
-0.094969764 0.1396758 0.2950048 0.19104838 0.082546875 -0.28467777 -0.009356945 0.022052709
0.12293711 0.05719675 0.35491067 0.023054522 0.09787229 0.17554641 -0.033289492 0.055879824
-0.10636495 -0.18093657 -0.07024324 -0.05419711 0.24225141 -0.19018105 -0.49921384 -0.15916431
0.1876593 0.17545518 -0.14379132 -0.57883656 -0.38048214 0.08362293 0.11207213 -0.07168445
-0.011494471 0.0030041358 0.0059578405 -0.11521165 -0.17126499 -0.15959708 0.0022954997 0.06252317
-0.1483321 0.0029049923 -0.113540635 -0.02962902 -0.3379695 -0.350377 -0.12151694 0.13313586
0.21589987 -0.103659585 -0.003443844 -0.09420601 0.24287498 0.23179409 0.27889508 0.29935756
-0.14806701 -0.18504637 -0.20170006 -0.07817571 -0.07542023 0.026251074 -0.06378599 -0.17876206
0.14980522 0.1293852 -0.09181967 -0.11999748 0.09925812 0.099076554 -0.08453311 -0.05225736
-0.18640228 -0.013092921 -0.157853 -0.32904875 -0.31904596 -0.30008107 -0.21521479 -0.006371732
-0.020699427 -0.34413314 -0.50055665 -0.22818607 -0.026382074 0.013862136 -0.045190416 -0.051695254
0.056498 0.22129945 0.1415357 -0.055246335 -0.025586657 -0.43069342 -0.19497648 0.12404362
-0.34318936 -0.31561702 -0.048019793 0.17154813 0.0040068887 0.08894906 0.072488464 -0.08859993
0.32064936 0.1895608 -0.063859865 -0.2786391 -0.020479497 0.049938124 0.08485424 0.23960191
00000000: 370d 96bd 11cd 7a3d 1e07 9c3d 11c0 2c3d
00000010: 9135 0cbe edad 68be 4e80 a2bd 41ab b3be
00000020: 4d69 87be 76b8 ccbd 6c58 09bd 6844 b8b8
00000030: 122d 98be dea0 3cbe 6f58 76bd f488 15bd
00000040: 7ca6 c73d a94f 703e e059 533e 3ee2 7a3e
00000050: 7fe1 a63c e29a 63be 8365 17be 16af 7abe
00000060: bdad e0bd 7a32 993e c8d4 823e 4e5a 9e3e
00000070: 9ceb e03d 0a66 8a3e 352a b8bd 8e7b 9cbd
00000080: caaa 71bd 1f11 4c3e 947b bb3e 699e 96be
00000090: b9b7 3f3d 159d 3d3e ca0e cc3d 8737 143e
000000a0: 769c 8ebe 428d 163e 7461 c8be fd5c cabe
000000b0: a497 a7be 99af 203e e151 e73d f25f c3be
000000c0: dad7 30bd f4b1 89bd bdde cdbd 8c45 e3be
000000d0: 1f68 4abe faa8 93be 2a41 0d3e 4b92 a23e
000000e0: 096d 203e 9fac 003d aab5 24be b11b 52be
000000f0: 54ea aebc dda2 a23c 5e25 42be 3163 52be
00000100: 5d27 45be 31b2 4d3e ba5d e73c a427 2c3e
00000110: 2733 fabb 3fb0 90bd 559a 82ba bdb6 58be
00000120: 1348 69be 0ac3 bbbd 1d46 40bd df1e a6be
00000130: 0368 febc 2ff4 7c3e 4daf 473e 1a2a ecbe
00000140: c742 3cbe 7e10 193a fd04 083e baf1 c5be
00000150: fd0a b0be 8e04 48bd b30e c73c 8638 5abe
00000160: ec5b eebe 2f1e c1be 53c4 c23c 1233 a5bd
00000170: f31b bcbe c46c cabe 2f64 883e 8f2b 7d3e
00000180: d5ae 09be dc0a 20bd 120a b33d 98ca ac3e
00000190: e613 b0bd 55bf 293d ebfa 1b3e e697 d43d
000001a0: f7b7 fb3d b235 01be 9588 9f3d b9cd b6be
000001b0: 8dc3 7cbd e7f7 233e ef7d c0bd e118 0e3e
000001c0: 39bd 143e 3b7c 953e 2745 223e 6319 ecbd
000001d0: d74a 8a3e 2f4d c23e 05c2 953e 44f6 d9bd
000001e0: 6364 2e3d 5461 2f3d dcb4 08be 8e76 20be
000001f0: 6a6b 2ebe 1aab 6d3e eeb8 a8be 7e80 7abe
00000200: a206 5dbd 18a4 21bd c932 913e 6983 b83d
00000210: 8a87 313e 6cf8 0d3f 5a16 fb3e 8800 a23b
00000220: e262 f3bb 55dd 3dbe fc4e 02be df97 bbbd
00000230: 0b1c 0a3e 4b8d 213e 4727 ab3d 2582 84be
00000240: 827f c2bd 2c07 0f3e df0a 973e 30a2 433e
00000250: 560e a93d 49c1 91be df4d 19bc e2a7 b43c
00000260: 74c6 fb3d 2447 6a3d dab6 b53e d6dc bc3c
00000270: 4471 c83d 70c2 333e 905a 08bd 3ee2 643d
00000280: ded5 d9bd 7047 39be b0db 8fbd cafd 5dbd
00000290: c110 783e d2be 42be f598 ffbe f8fb 22be
000002a0: c229 403e 86aa 333e 083e 13be a22e 14bf
000002b0: 8ece c2be 8042 ab3d 1386 e53d 4ccf 92bd
000002c0: 4e53 3cbc 09e1 443b fd39 c33b 16f4 ebbd
000002d0: 1760 2fbe 6b6d 23be 1870 163b 260c 803d
000002e0: 5fe4 17be af61 3e3b fe87 e8bd 8fb8 f2bc
000002f0: 570a adbe 9d64 b3be e0dd f8bd c454 083e
00000300: db14 5d3e 7a4b d4bd 1db2 61bb 15ef c0bd
00000310: 38b4 783e 6e5b 6d3e 56cb 8e3e 6545 993e
00000320: e19e 17be cc7c 3dbe 768a 4ebe 961a a0bd
00000330: ec75 9abd 7e0c d73c 3ba2 82bd 670d 37be
00000340: 8a66 193e 8e7d 043e f30b bcbd 3dc1 f5bd
00000350: d747 cb3d a6e8 ca3d b21f adbd d00b 56bd
00000360: 3de0 3ebe b183 56bc 38a4 21be 1479 a8be
00000370: fe59 a3be 3aa4 99be 4461 5cbe f6c9 d0bb
00000380: d891 a9bc 3832 b0be 7b24 00bf 9ca9 69be
00000390: 381f d8bc 031e 633c 9619 39bd 67be 53bd
000003a0: 726a 673d 539c 623e bcee 103e fb49 62bd
000003b0: 1c9b d1bc d983 dcbe eaa7 47be 950a fe3d
000003c0: 84b6 afbe 8e98 a1be 67b0 44bd 50aa 2f3e
000003d0: 384c 833b ed2a b63d d574 943d e173 b5bd
000003e0: 272c a43e 3a1c 423e f6c8 82bd c9a9 8ebe
000003f0: 9ec4 a7bc eb8b 4c3d 0fc8 ad3d 345a 753e

conv4.bias f4 [16]
-0.007912245 -0.23039395 -0.024033979 -0.28338206 -0.31776515 -0.115085416 -0.2480556 -0.2917887
-0.24423514 -0.27919874 -0.59560895 -0.7642448 -0.33675668 -0.39829344 -0.479618 0.07459303
00000000: 5ca2 01bc 64ec 6bbe e8e2 c4bc 7417 91be
00000010: 1db2 a2be e7b1 ebbd 4a02 7ebe 5465 95be
00000020: c718 7abe 23f3 8ebe d479 18bf 8ca5 43bf
00000030: 5f6b acbe 1eed cbbe 7e90 f5be 3bc4 983d

bn4.weight f4 [16]
0.9635819 0.97618556 0.8164317 0.93361115 1.1127092 0.9359454 0.8910395 0.9688937
0.7693858 0.9611026 0.8492322 1.1849875 1.0870879 0.90821785 0.8516678 0.7405372
00000000: 4ead 763f 4ce7 793f ab01 513f 2401 6f3f
00000010: 416d 8e3f 1e9a 6f3f 2a1b 643f 6b09 783f
00000020: 78f6 443f d20a 763f 4867 593f acad 973f
00000030: b225 8b3f f780 683f e706 5a3f d993 3d3f

bn4.bias f4 [16]
-0.20371546 -0.15349607 -0.09788256 0.059498053 -0.23039664 -0.11152597 -0.12472864 -0.12510744
-0.15276563 -0.18033686 -0.025050707 -0.108980455 -0.118866116 -0.10321389 -0.069409885 -0.18995646
00000000: c99a 50be 132e 1dbe a776 c8bd 3bb4 733d
00000010: 19ed 6bbe ba67 e4bd bb71 ffbd 2a1c 00be
00000020: 986e 1cbe 3aaa 38be 2437 cdbc 2531 dfbd
00000030: 1470 f3bd ce61 d3bd c526 8ebd f283 42be

bn4.running_mean f4 [16]
1.047536 0.30065894 0.5150168 0.08683221 0.1799386 0.16790527 0.36788929 0.29599026
5.570924 0.47384253 1.2617944 0.055156775 0.12537886 0.27613717 0.27636626 0.78465503
00000000: a915 863f f8ef 993e 24d8 033f 16d5 b13d
00000010: d341 383e 5cef 2b3e fc5b bc3e 098c 973e
00000020: 0245 b240 7d9b f23e 7b82 a13f 12ec 613d
00000030: 5163 003e da61 8d3e e17f 8d3e 27df 483f

bn4.running_var f4 [16]
7.954773 2.5959992 4.047053 0.68730086 1.7869376 1.4347073 2.7347379 2.007713
52.73682 4.529601 14.846928 0.5270142 1.1133878 2.4311216 2.3667152 6.6934166
00000000: 808d fe40 da24 2640 7581 8140 f3f2 2f3f
00000010: 5fba e43f 7da4 b73f f205 2f40 5f7e 0040
00000020: 81f2 5242 7ef2 9040 048d 6d41 67ea 063f
00000030: 7e83 8e3f 7f97 1b40 4378 1740 7830 d640

fc1.weight f4 [16, 4096]
0.002581394 -0.2122917 0.117808126 0.11420039 -0.04551958 -0.36576176 -0.10639943 -0.22836566
-0.05839272 0.06425898 0.1612228 -0.043723863 -0.089889415 0.14478819 -0.3114906 -0.048155773
0.0666583 0.17574076 0.19952501 0.26423576 -0.010433493 0.35071263 0.08649168 0.11510916
0.164129 -0.31108648 -0.2715346 0.24806869 -0.073022656 0.3326359 0.27167714 0.1527374
-0.3867367 0.16004843 0.019679077 -0.14984573 0.028882597 -0.16951792 -0.09108776 -0.15567596
-0.36054552 -0.23854923 -0.31114036 -0.026127655 -0.23167299 0.1519755 0.08543343 -0.09283909
-0.6578551 0.31748885 0.15103614 -0.07095394 0.2815878 0.041113306 0.1604763 0.13038646
-0.13866189 0.31003729 0.27463838 0.08820261 0.076319605 0.21039765 -0.03422586 0.06829686
-0.1843117 0.21574657 -0.036040153 -0.12926096 0.012409036 0.22205886 -0.048852686 -0.21481068
0.1556689 0.2286689 0.06415391 -0.021213073 -0.14527556 -0.24686933 0.26883876 0.04544439
-0.36018544 0.028734552 -0.0764664 0.0813164 -0.13813417 -0.14343305 -0.014028183 -0.2368434
0.1313596 0.27522033 0.12755902 -0.26342803 -0.36101165 0.10633864 0.06729671 -0.21802533
0.035074033 -0.14843398 -0.06990706 0.3097074 -0.036550064 -0.14679539 -0.14613365 0.16983981
0.17115371 0.055523038 0.481972 -0.46886918 -0.34097537 0.040378965 -0.0746992 -0.04048212
0.2802856 -0.020426102 -0.040408846 0.47392505 -0.040723782 -0.3387408 -0.04701861 0.026915735
-0.15112889 0.22979045 0.2810115 -0.06190947 -0.32245559 -0.25964284 -0.16014326 0.046219416
-0.23771152 -0.12734821 0.33091202 0.43486074 -0.0042305766 -0.15621732 0.1577802 0.42294645
0.26430297 0.11235258 0.14908892 -0.040212967 0.11920784 -0.018680364 -0.2116417 0.21195672
-0.027098438 -0.028293006 0.11289712 0.4880777 -0.09435852 -0.055880826 -0.06436305 0.08728389
-0.12341171 0.0013419752 -0.12520526 -0.4074126 -0.16593409 0.036244057 0.101471156 -0.017130503
-0.5068637 -0.16258438 0.07856581 0.068925485 -0.29103187 0.059698585 -0.11990962 -0.4007919
-0.22517101 0.15362908 -0.17364946 -0.25646773 -0.35196185 0.14369883 -0.028400889 -0.24644305
-0.20828147 -0.30406496 0.34449175 0.12788069 0.113264814 -0.2524023 -0.099431396 -0.117597185
-0.031467665 -0.27373245 -0.18956973 -0.14677314 -0.09075113 -0.08738954 -0.20595522 0.33977208
-0.4006995 -0.18360603 0.3260206 0.16981675 -0.14130549 0.022944838 0.050368097 0.18564197
0.30575266 0.21753623 0.02020544 0.022787554 0.0719777 -0.03664146 -0.0088340035 -0.14434944
-0.014111482 0.10521 0.25359634 0.4478613 0.2961252 0.00045715022 0.06353983 -0.17753734
0.26907387 -0.054210685 0.11322708 -0.14652736 -0.07657917 -0.14858536 -0.05515764 0.05645195
0.23552892 0.20275645 -0.14606854 0.32814512 0.25692514 0.024146948 -0.13266726 0.1223277
-0.0030848924 0.23366159 0.15415023 -0.010473351 0.19553056 -0.14495519 0.16679676 0.40503135
0.072459444 0.04748397 0.05339668 0.19326128 -0.0967665 -0.16367556 0.000831684 0.09184669
-0.029046465 0.047004316 -0.43897197 0.10599176 0.09195063 -0.030706476 -0.29455116 0.2873217
00000000: 9b2c 293b ff62 59be 6345 f13d e5e1 e93d
00000010: bd72 3abd 2045 bbbe f2e7 d9bd b0d8 69be
00000020: 342d 6fbd 369a 833d 9717 253e cb17 33bd
00000030: f117 b8bd 5b43 143e b27b 9fbe fd3e 45bd
00000040: 2684 883d 63f5 333e 4950 4c3e e949 873e
00000050: 3ef1 2abc 9b90 b33e 8d22 b13d 5abe eb3d
00000060: 6f11 283e ba46 9fbe 9506 8bbe b805 7e3e
00000070: e78c 95bd 414f aa3e 4419 8b3e 3167 1c3e
00000080: 5a02 c6be bce3 233e 0436 a13c 2971 19be
00000090: 329b ec3c 1b96 2dbe 388c babd 8569 1fbe
000000a0: 6c99 b8be 4046 74be ca4d 9fbe aa09 d6bc
000000b0: af3b 6dbe 779f 1b3e b9f7 ae3d 6c22 bebd
000000c0: 3169 28bf e68d a23e 38a9 1a3e 4d50 91bd
000000d0: 472c 903e 6d66 283d e653 243e 0784 053e
000000e0: 62fd 0dbe 35bd 9e3e 679d 8c3e 92a3 b43d
000000f0: 744d 9c3d 7b72 573e 6a30 0cbd 39df 8b3d
00000100: 35bc 3cbe abec 5c3e d79e 13bd fc5c 04be
00000110: 454f 4b3c 6663 633e c119 48bd 55f7 5bbe
00000120: ab67 1f3e 2e28 6a3e 2063 833d 0ac7 adbc
00000130: 1ec3 14be 50cb 7cbe 3ca5 893e e623 3a3d
00000140: 3a6a b8be b964 eb3c 6a9a 9cbd 3689 a63d
00000150: 0b73 0dbe 1de0 12be 77d6 65bc 1487 72be
00000160: 2283 063e aee9 8c3e d59e 023e 0ae0 86be
00000170: 85d6 b8be 13c8 d93d dcd2 893d 0842 5fbe
00000180: caa9 0f3d 14ff 17be 6f2b 8fbd f891 9e3e
00000190: 85b5 15bd 8851 16be 0fa4 15be 7dea 2d3e
000001a0: eb42 2f3e 206c 633d 09c5 f63e 9f0f f0be
000001b0: 5394 aebe 6a64 253d e5fb 98bd 94d0 25bd
000001c0: 9881 8f3e a454 a7bc bf83 25bd 4ea6 f23e
000001d0: fbcd 26bd 6f6f adbe 9696 40bd 637e dc3c
000001e0: 88c1 1abe 304e 6b3e bde0 8f3e c994 7dbd
000001f0: e618 a5be e8ef 84be 98fc 23be 9250 3d3d
00000200: a66a 73be 9267 02be 4d6d a93e 11a6 de3e
00000210: a6a0 8abb 6ff7 1fbe 2291 213e 708c d83e
00000220: b852 873e 1c19 e63d c4aa 183e 5ab6 24bd
00000230: 3d23 f43d 9007 99bc 9ab8 58be 2f0b 593e
00000240: 8bfd ddbc bcc6 e7bc 9b36 e73d 52e5 f93e
00000250: 0a3f c1bd 4be3 64bd c6d0 83bd e5c1 b23d
00000260: 47bf fcbd 37e5 af3a cf35 00be 6298 d0be
00000270: a0ea 29be a674 143d 1cd0 cf3d 4555 8cbc
00000280: d2c1 01bf 857c 26be 1de7 a03d ce28 8d3d
00000290: 2102 95be 8186 743d 2d93 f5bd 9934 cdbe
000002a0: 3b93 66be f150 1d3e 2ad1 31be bd4f 83be
000002b0: 5834 b4be c925 133e fba8 e8bc 915b 7cbe
000002c0: bd47 55be 67ae 9bbe 3961 b03e 28f3 023e
000002d0: 62f7 e73d e03a 81be b0a2 cbbd cbd6 f0bd
000002e0: 3de4 00bd a926 8cbe 911e 42be b34b 16be
000002f0: badb b9bd 4af9 b2bd ede5 52be 9bf6 ad3e
00000300: 7c28 cdbe 3803 3cbe 2cec a63e 71e4 2d3e
00000310: 63b2 10be d0f6 bb3c c74e 4e3d ee18 3e3e
00000320: 9d8b 9c3e d1c1 5e3e e185 a53c f7ac ba3c
00000330: 0b69 933d 5b15 16bd 7fbc 10bc 57d0 13be
00000340: d833 67bc 5778 d73d 61d7 813e 144e e53e
00000350: b99d 973e aaad ef39 2c21 823d 59cc 35be
00000360: 0dc4 893e 060c 5ebd 99e3 e73d 450b 16be
00000370: 8ad5 9cbd c326 18be faec 61bd 293a 673d
00000380: 7e2e 713e 639f 4f3e fe92 15be a302 a83e
00000390: b18b 833e d2cf c53c edd9 07be f286 fa3d
000003a0: e82b 4abb fc44 6f3e 8fd9 1d3e 6b98 2bbc
000003b0: 2a39 483e 226f 14be c5cc 2a3e 4560 cf3e
000003c0: 9e65 943d 8d7e 423d 7ab6 5a3d 49e6 453e
000003d0: 842d c6bd 919a 27be 5e05 5a3a 1e1a bc3d
000003e0: daf2 edbc 9987 403d efc0 e0be 3512 d93d
000003f0: 9d50 bc3d 268c fbbc 69cf 96be d41b 933e

fc1.bias f4 [16]
-0.33058262 -0.2841371 0.12771344 0.075904 -0.082177185 -0.08380737 -0.19400918 -0.1833235
-0.1198028 -0.28806394 -0.39178512 0.053373612 -0.16544402 -0.27006018 -0.20995131 -0.22619328
00000000: 2042 a9be 6b7a 91be 50c7 023e 8e73 9b3d
00000010: 834c a8bd 33a3 abbd 58aa 46be 28b9 3bbe
00000020: 2c5b f5bd 1e7d 93be 0f98 c8be 4a9e 5a3d
00000030: 286a 29be 5445 8abe 7afd 56be 369f 67be

fc2.weight f4 [1, 16]
-0.2422206 -0.18025969 0.22143677 0.13842724 0.19392605 0.1904194 -0.2178462 0.21087012
-0.25760713 -0.24367763 -0.22967461 0.19039313 0.1931005 -0.1906535 -0.17585276 -0.1614589
00000000: ad08 78be ff95 38be 52c0 623e dfbf 0d3e
00000010: 8d94 463e 4efd 423e 1313 5fbe 56ee 573e
00000020: 15e5 83be a186 79be d22f 6bbe 6bf6 423e
00000030: 23bc 453e ac3a 43be bf12 34be 7b55 25be
